…
2023-06-12 10:29:36.028824: I tensorflow/stream_executor/cuda/cuda_diagnostics.cc:156] kernel driver does not appear to be running on this host (evertzRnD24NBLG3): /proc/driver/nvidia/version does not exist
2023-06-12 10:29:36.028995: I tensorflow/core/platform/cpu_feature_guard.cc:142] This TensorFlow binary is optimized with oneAPI Deep Neural Network Library (oneDNN) to use the following CPU instructions in performance-critical operations:  AVX2 AVX512F FMA
To enable them in other operations, rebuild TensorFlow with the appropriate compiler flags.
Model: "sequential"
_________________________________________________________________
Layer (type)                 Output Shape              Param #
=================================================================
conv2d (Conv2D)              (None, 256, 256, 32)      896
_________________________________________________________________
max_pooling2d (MaxPooling2D) (None, 128, 128, 32)      0
_________________________________________________________________
conv2d_1 (Conv2D)            (None, 128, 128, 32)      9248
_________________________________________________________________
max_pooling2d_1 (MaxPooling2 (None, 64, 64, 32)        0
_________________________________________________________________
conv2d_2 (Conv2D)            (None, 64, 64, 64)        18496
_________________________________________________________________
max_pooling2d_2 (MaxPooling2 (None, 32, 32, 64)        0
_________________________________________________________________
dropout (Dropout)            (None, 32, 32, 64)        0
_________________________________________________________________
flatten (Flatten)            (None, 65536)             0
_________________________________________________________________
dense (Dense)                (None, 128)               8388736
_________________________________________________________________
dense_1 (Dense)              (None, 10)                1290
=================================================================
Total params: 8,418,666
Trainable params: 8,418,666
Non-trainable params: 0
_________________________________________________________________
/home/ayadav/.local/share/virtualenvs/librosa-zh1XWsvG/lib/python3.9/site-packages/tensorflow/python/keras/optimizer_v2/optimizer_v2.py:374: UserWarning: The `lr` argument is deprecated, use `learning_rate` instead.
…
