…
/home/ayadav/Desktop/librosa/3_model_train.py:47: VisibleDeprecationWarning: Creating an ndarray from ragged nested sequences (which is a list-or-tuple of lists-or-tuples-or ndarrays with different lengths or shapes) is deprecated. If you meant to do this, you must specify 'dtype=object' when creating the ndarray.
  return np.array(data)
/home/ayadav/.local/share/virtualenvs/librosa-zh1XWsvG/lib/python3.9/site-packages/keras/optimizers/legacy/adam.py:117: UserWarning: The `lr` argument is deprecated, use `learning_rate` instead.
  super().__init__(name, **kwargs)
Model: "sequential"
_________________________________________________________________
 Layer (type)                Output Shape              Param #
=================================================================
 conv2d (Conv2D)             (None, 256, 256, 32)      896

 max_pooling2d (MaxPooling2D  (None, 128, 128, 32)     0
 )

 conv2d_1 (Conv2D)           (None, 128, 128, 32)      9248

 max_pooling2d_1 (MaxPooling  (None, 64, 64, 32)       0
 2D)

 conv2d_2 (Conv2D)           (None, 64, 64, 64)        18496

 max_pooling2d_2 (MaxPooling  (None, 32, 32, 64)       0
 2D)

 dropout (Dropout)           (None, 32, 32, 64)        0

 flatten (Flatten)           (None, 65536)             0

 dense (Dense)               (None, 128)               8388736

 dense_1 (Dense)             (None, 10)                1290

=================================================================
Total params: 8,418,666
Trainable params: 8,418,666
Non-trainable params: 0
_________________________________________________________________
Epoch 1/500
/home/ayadav/.local/share/virtualenvs/librosa-zh1XWsvG/lib/python3.9/site-packages/keras/backend.py:5612: UserWarning: "`sparse_categorical_crossentropy` received `from_logits=True`, but the `output` argument was produced by a Softmax activation and thus does not represent logits. Was this intended?
…
